mnist_model.pth (torch, 974256 bytes, 8 tensors)

fc1.weight f4 [256, 784]
5.2126e-41 -5.3563e-41 5.5773e-41 1.34837e-40 -5.5475e-41 -5.203e-41 -5.318e-41 6.0608e-41
-5.1763e-41 -6.0533e-41 -6.0909e-41 5.487e-41 -4.0342428e-07 -0.0013324342 -2.448e-42 7.0491e-41
5.4901e-41 -4.9753e-41 -5.2784e-41 4.931e-41 -5.2916e-41 5.8842e-41 -1.88601e-40 -5.4697e-41
-5.5574e-41 4.921e-41 4.9179e-41 -4.9953e-41 5.7036e-41 5.0267e-41 4.9267e-41 5.3919e-41
-1.64898e-40 2.0758007e-16 -4.3574424e-08 -2.6763698e-06 -0.02911099 -0.011052594 9.001624e-10 7.995748e-09
-0.008694901 -0.0072968104 0.0022768592 -2.1296275e-05 2.0579807e-09 -4.9086686e-09 -5.043596e-10 -2.9248323e-19
5.05427e-22 4.9109e-41 -5.1569e-41 -4.9343e-41 4.9114e-41 5.7312e-41 4.9058e-41 4.91e-41
4.9163e-41 5.3932e-41 -2.79881e-40 -0.012940831 -2.5716463e-33 1.136917e-16 -0.009366606 -0.009090164
-0.036210265 -0.05114317 -0.023659814 -0.03784511 -0.005381892 0.0058166403 -0.005051649 -0.015505592
0.0026948901 -0.010033102 -0.018943204 -0.015830193 -0.01598588 -0.0077468543 8.427986e-10 2.1007014e-10
-7.313904e-20 4.9624e-41 -4.9174e-41 -4.9052e-41 5.7201e-41 -5.9271e-41 -2.63338e-40 -0.017941661
-0.022148369 -0.021015584 -0.009349469 -0.0087257475 -0.05461924 -0.08647722 -0.040695805 -0.02178901
0.031294752 0.017278634 0.00922505 -0.042074516 -0.036140837 -0.08738252 -0.057095982 -0.011334312
0.02951416 0.019845407 -0.009655624 0.0033394508 0.001498752 -3.1100833e-13 -5.946e-41 -5.605e-41
-5.7955e-41 -5.2124e-41 7.955234e-12 2.236177e-12 -0.025289005 -0.033267614 -0.008273169 0.044662356
0.006783557 -0.005009939 0.029148215 0.12306006 0.121816084 0.038087573 0.04232213 0.06866762
0.029638056 -0.055600516 -0.03179187 0.019843312 0.042011358 0.03706499 0.043444414 0.0105818845
0.0067320834 3.055306e-09 -4.031106e-10 -5.0116e-41 4.9051e-41 -5.696e-41 2.0762272e-09 -0.00024480745
-0.027015282 -0.021622714 -0.005180437 0.0060835 0.004981801 0.06142669 0.12260008 0.09268883
0.03530035 0.004499876 -0.01706757 -0.050715115 0.010717565 0.05673753 0.041905098 0.027844299
0.056631558 0.040157422 0.01580591 -0.0012281033 0.0002472703 0.0006378419 -5.4448697e-07 -2.4591088e-24
-5.2774e-41 -5.7145e-41 -4.067194e-10 -0.009383896 -0.047399826 -0.04763465 -0.06118006 -0.06458732
-0.052317508 0.034798536 0.0029508243 -0.048056338 -0.05796499 -0.025207007 -0.11410018 -0.09144755
-0.005987176 0.019420383 -0.05743998 0.058779236 0.14613174 0.04569915 -0.049753696 -0.021589475
0.00012661824 0.00022610139 -8.165854e-05 6.3157076e-15 -4.9137e-41 -5.1548373e-08 0.000607294 -0.006256915
-0.033472255 -0.04833741 -0.08998326 -0.07727993 0.012081705 -0.035269994 -0.01374462 -0.05748729
0.06198582 -0.031711414 -0.031505544 -0.03834141 0.005252895 0.046746813 0.0061711273 -0.037517022
0.08459898 0.023558144 -0.040449724 -0.05785878 -0.00087024726 0.008782257 0.00010381824 -1.9149862e-11
5.7857e-41 1.14663e-07 0.004992614 0.010102531 0.014802091 -0.05946833 -0.07720297 -0.04713562
0.006975464 0.015728125 -0.04380089 0.017964609 -0.004697875 -0.057569277 -0.017754158 -0.015697075
0.0066188793 -0.009929405 0.048648804 0.045057077 0.019280504 -0.020584408 -0.14291026 -0.09077275
-0.009653767 -0.0026306163 5.911402e-10 -2.0155237e-11 -1.0921293e-19 -8.111441e-06 0.011273365 0.04637385
00000000: 4e91 0000 5095 0080 799b 0000 df77 0100
00000010: a49a 0080 0a91 0080 3f94 0080 f3a8 0000
00000020: 4b90 0080 bea8 0080 caa9 0080 f598 0000
00000030: 3696 d8b4 13a5 aeba d306 0080 80c4 0000
00000040: 0b99 0000 b18a 0080 2493 0080 7589 0000
00000050: 8293 0080 07a4 0000 be0d 0280 7998 0080
00000060: eb9a 0080 2d89 0000 1789 0000 408b 0080
00000070: fe9e 0000 208c 0000 5689 0000 4e96 0000
00000080: abcb 0180 d352 6f25 9626 3bb3 af9b 33b6
00000090: 2c7a eebc f015 35bc 4c6f 7730 ac5d 0932
000000a0: 0f75 0ebc 151a efbb 5c37 153b 67a5 b2b7
000000b0: 616c 0d31 1ba9 a8b1 27a3 0ab0 d1a6 aca0
000000c0: 85c1 181c e588 0000 c18f 0080 8c89 0080
000000d0: e988 0000 c39f 0000 c188 0000 df88 0000
000000e0: 0c89 0000 5796 0000 320c 0380 c705 54bc
000000f0: dea4 5589 de13 0325 6576 19bc e9ee 14bc
00000100: 3751 14bd 807b 51bd 3ad2 c1bc 7903 1bbd
00000110: 955a b0bb 8499 be3b 4e88 a5bb 2b0b 7ebc
00000120: c19c 303b e161 24bc c72e 9bbc 52ae 81bc
00000130: d2f4 82bc 53d9 fdbb aeaa 6730 7df9 662f
00000140: d6b1 ac9f 558a 0000 1489 0080 bd88 0080
00000150: 749f 0000 39a5 0080 14de 0280 64fa 92bc
00000160: 7f70 b5bc e028 acbc 842e 19bc 70f6 0ebc
00000170: 6db8 5fbd f81a b1bd a5b0 26bd de7e b2bc
00000180: ed2e 003d ec8b 8d3c aa24 173c 5456 2cbd
00000190: 6a08 14bd 9bf5 b2bd 7add 69bd 8db3 39bc
000001a0: aec7 f13c d692 a23c 9f32 1ebc b0da 5a3b
000001b0: c671 c43a 0615 afaa c0a5 0080 3f9c 0080
000001c0: 8ea1 0080 4d91 0080 30f3 0b2d 625b 1d2c
000001d0: e32a cfbc 9f43 08bd 308c 07bc e0ef 363d
000001e0: 9a48 de3b 6a2a a4bb 3dc8 ee3c ea06 fc3d
000001f0: b67a f93d b701 1c3d f859 2d3d 9ca1 8c3d
00000200: 82cb f23c 5ebd 63bd 3138 02bd 718e a23c
00000210: 1a14 2c3d 75d1 173d c5f2 313d a45f 2d3c
00000220: cf98 dc3b 83f5 5131 c69c ddaf b48b 0080
00000230: bc88 0000 c89e 0080 60ad 0e31 8059 80b9
00000240: 274f ddbc 1e22 b1bc a8c0 a9bb 1958 c73b
00000250: 603e a33b 8e9a 7b3d c015 fb3d a4d3 bd3d
00000260: 1a97 103d b273 933b 4ad1 8bbc a7ba 4fbd
00000270: ba98 2f3c 9d65 683d aea4 2b3d ba19 e43c
00000280: 7ef6 673d 1c7c 243d 657b 813c 4ff8 a0ba
00000290: 0fa4 8139 d834 273a dc28 12b5 ab43 3e98
000002a0: 1d93 0080 4c9f 0080 ab98 dfaf eabe 19bc
000002b0: 5226 42bd 8d1c 43bd f197 7abd 5b46 84bd
000002c0: e24a 56bd e988 0e3d 9e62 413b b9d6 44bd
000002d0: b36c 6dbd ed7e cebc 5bad e9bd da48 bbbd
000002e0: 1330 c4bb 7f17 9f3c 2f46 6bbd 7fc2 703d
000002f0: 8fa3 153e 082f 3b3d 88ca 4bbd 69dc b0bc
00000300: d3c4 0439 a115 6d39 1840 abb8 1f8c e327
00000310: f988 0080 0966 5db3 cf32 1f3a cf06 cdbb
00000320: 341a 09bd 73fd 45bd 2549 b8bd f144 9ebd
00000330: 58f2 453c 4577 10bd 1d31 61bc cb77 6bbd
00000340: d8e4 7d3d d4e3 01bd f50b 01bd e20b 1dbd
00000350: 7a20 ac3b 9679 3f3d 2b37 ca3b 73ab 19bd
00000360: 3b42 ad3d 02fd c03c 9cae 25bd 54fd 6cbd
00000370: 4e21 64ba 75e3 0f3c feb8 d938 a871 a8ad
00000380: 48a1 0000 a73c f633 1599 a33b 1685 253c
00000390: 7884 723c 1095 73bd 971c 9ebd 4811 41bd
000003a0: 6f92 e43b 45d8 803c 9068 33bd 842a 933c
000003b0: a2f0 99bb c3cd 6bbd 2b71 91bc 2797 80bc
000003c0: 2fe3 d83b f1ae 22bc f843 473d c58d 383d
000003d0: 26f2 9d3c a2a0 a8bc 1157 12be 10e7 b9bd
000003e0: d52a 1ebc 6b66 2cbb cb7d 2230 8f49 b1ad
000003f0: 95ef 00a0 6016 08b7 ebb3 383c 82f2 3d3d

fc1.bias f4 [256]
0.11425195 -0.02922982 -7.3182793e-10 -1.9595515e-07 -0.08323743 -1.2589713e-12 0.05395433 -0.0050200126
-0.0018534868 -0.0015217306 -0.003517316 -0.11944396 -0.0442789 0.029366799 -0.07076413 0.010807023
-3.464213e-09 0.010419806 -0.07536111 0.16164751 -7.152235e-16 0.14861208 -0.034575507 -6.0035046e-29
-0.012124907 -0.010894877 0.082325615 -0.08225105 -4.9953425e-08 0.0003961686 -0.017154358 0.053527415
0.12653504 -1.5131013e-07 -0.0026691665 0.039981615 -2.6259424e-12 -0.117686816 -0.00029534398 0.013360374
-0.015648942 -0.030362321 0.008800407 -0.11925275 -0.01607716 -0.008476353 -1.0120906e-09 0.052151725
0.07203933 -0.010335928 -0.038929176 0.02868619 -0.00037536325 0.0029292554 0.11491549 -0.06890655
-1.7647412e-24 -0.010787077 -0.0050457534 -4.546751e-24 0.028061926 -1.2264462e-05 -0.0538261 0.08591914
0.05054492 -6.5453065e-32 -0.038604036 0.01259173 -0.037456457 -4.6869764e-10 0.012417634 -0.0012733783
-0.013810925 0.18185705 -0.04295272 0.03342376 -0.022785528 -1.9668523e-05 -0.05955177 -0.007630645
-0.046209566 -0.11158878 0.054408144 -8.86537e-12 0.11701557 -0.03368464 -0.09926196 0.03692241
0.033797648 -0.031700768 0.024289533 0.065380394 0.0024329708 -0.004397033 -0.08474329 -0.0019531576
-0.007181498 -1.2690284e-05 -0.037725825 -0.072237656 0.042861875 0.010488291 -0.018106833 0.02729853
0.03219453 -0.017510662 -0.024899404 0.00011713804 0.030456394 -0.04177267 -2.1195858e-05 0.09622134
-0.029577788 -0.0048458767 0.022891551 -0.053798027 -0.0041187815 0.07285473 0.028196601 0.04130775
0.021608522 -1.2601976e-06 -1.3798272e-12 0.0041453894 -0.061349005 -0.0012661717 -6.401005e-07 -0.016061136
0.059199035 -0.121115096 -7.5405e-10 -7.662472e-23 0.00558064 0.053316634 -0.11770532 -0.077590056
0.114729114 -0.025019264 -2.69897e-07 -0.06519751 -4.4267164e-21 -0.08904428 -0.008857486 -0.055543184
-0.029248526 0.12999079 -0.092811346 -4.4056436e-11 0.009124296 0.076416574 0.1915648 0.050946634
-0.0767282 -0.005332715 -1.14454654e-10 -0.057409942 -0.089797646 -0.013189341 0.028089022 -0.0007574398
-0.051298004 0.062282458 -0.19678068 -1.5758201e-09 0.03970273 0.04348325 -0.01937254 -0.046942644
-0.029466722 -0.07128935 0.04053258 -0.02254362 0.16313437 0.18290138 -2.741542e-09 -0.087331586
-0.039121624 -0.06791981 -0.0021360512 0.042394448 -0.03588491 -0.053166136 0.031078584 0.013568147
-0.132091 0.21082509 -0.013097201 -2.3966071e-09 -4.7331736e-29 -6.8813855e-10 -7.880548e-20 -0.09146886
0.025214337 0.0018465428 0.0031079047 0.08242857 -0.020350607 -0.04861036 -0.075978726 -0.10774904
-0.023948222 -0.006147496 -0.060113177 -0.07658423 -0.014179281 -0.020626716 -0.0004888138 0.021894427
0.07499182 0.06991876 0.03121169 -0.10938938 -2.2542912e-05 -8.736141e-09 -5.0426977e-25 0.018245947
-0.0050553377 -0.009430237 0.050539736 -0.094998516 0.043440215 -4.9353126e-05 -8.236965e-10 0.0024629657
-0.004035404 0.17697984 -0.11647255 -1.6386169e-08 -2.3631454e-16 -1.3047867e-08 -0.0004250038 -0.071509145
0.06963443 0.08650307 -0.019898567 0.00014910926 0.02004234 -1.3543574e-23 0.13782017 -0.003180277
-0.08908937 -0.0103636 -0.0056111244 -0.30735084 0.038859583 0.015801672 0.050800946 -0.050829988
-0.11863158 -0.012289087 -2.5024848e-08 -0.006623012 -0.060326215 -1.2761465e-22 -0.00088455377 -0.08811453
00000000: edfc e93d 6073 efbc d029 49b0 be67 52b4
00000010: 6378 aabd 392f b1ab 37ff 5c3d eb7e a4bb
00000020: b2f0 f2ba ce74 c7ba c582 66bb 099f f4bd
00000030: cb5d 35bd a492 f03c c9ec 90bd f10f 313c
00000040: 140f 6eb1 d6b7 2a3c ed56 9abd ed86 253e
00000050: 2e26 4ea6 c42d 183e 0c9f 0dbd f934 9890
00000060: 8ca7 46bc 6d80 32bc 559a a83d 3d73 a8bd
00000070: 5f8c 56b3 d9b4 cf39 4c87 8cbc 903f 5b3d
00000080: 6792 013e d077 22b4 2fed 2ebb c3c3 233d
00000090: c6c8 38ac c905 f1bd 66d8 9ab9 78e5 5a3c
000000a0: 3632 80bc 67ba f8bc 952f 103c c93a f4bd
000000b0: 40b4 83bc 67e0 0abc c619 8bb0 0c9d 553d
000000c0: 5b89 933d 0658 29bc 3374 1fbd 4dff ea3c
000000d0: 67cc c4b9 c0f8 3f3b d058 eb3d e11e 8dbd
000000e0: 4d8a 0898 48bc 30bc d956 a5bb d7e4 af98
000000f0: 20e2 e53c 77c3 4db7 c278 5cbd 60f6 af3d
00000100: 3108 4f3d 06ed a98b 441f 1ebd 8b4d 4e3c
00000110: f16b 19bd aad5 00b0 5573 4b3c 7ce7 a6ba
00000120: 3847 62bc bc38 3a3e 31ef 2fbd 5ae7 083d
00000130: b7a8 babc d5fd a4b7 8fec 73bd 7d0a fabb
00000140: 3e46 3dbd a988 e4bd 13db 5e3d 14f6 1bad
00000150: dca5 ef3d e8f8 09bd db49 cbbd f43b 173d
00000160: 676f 0a3d aad8 01bd d8fa c63c 28e6 853d
00000170: 7a72 1f3b fc14 90bb e48d adbd 8c00 00bb
00000180: c652 ebbb 5be8 54b7 6586 1abd 56f1 93bd
00000190: ef8f 2f3d 15d7 2b3c c854 94bc 2ba1 df3c
000001a0: 69de 033d 8572 8fbc d6f9 cbbc 02a8 f538
000001b0: b07f f93c d219 2bbd c2cd b1b7 b20f c53d
000001c0: 1e4d f2bc 29ca 9ebb 1087 bb3c 525b 5cbd
000001d0: d8f6 86bb dc34 953d 8ffc e63c 5132 293d
000001e0: 5b04 b13c 0f24 a9b5 8431 c2ab 0cd6 873b
000001f0: 1849 7bbd acf5 a5ba 5fd3 2bb5 a592 83bc
00000200: b07a 723d 310b f8bd 8d45 4fb0 6844 b99a
00000210: cddd b63b 8b62 5a3d 7d0f f1bd 89e7 9ebd
00000220: 19f7 ea3d 33f5 ccbc 5ce6 90b4 4686 85bd
00000230: 933c a79d d95c b6bd fd1e 11bc 4081 63bd
00000240: 9b9a efbc 4e1c 053e e013 bebd 23c3 41ae
00000250: 127e 153c 4b80 9c3d 9029 443e 6bad 503d
00000260: ad23 9dbd 0ebe aebb 3eb0 fbae b026 6bbd
00000270: d4e7 b7bd 1b18 58bc f31a e63c ed8e 46ba
00000280: db1d 52bd e41b 7f3d e080 49be 3e94 d8b0
00000290: 549f 223d 7e1b 323d 29b3 9ebc ee46 40bd
000002a0: 3264 f1bc 2700 92bd 7e05 263d 66ad b8bc
000002b0: b20c 273e 804a 3b3e b865 3cb1 e7da b2bd
000002c0: ff3d 20bd 8b19 8bbd fefc 0bbb cda5 2d3d
000002d0: 0efc 12bd bcc4 59bd 8498 fe3c ef4c 5e3c
000002e0: dd42 07be 88e2 573e a495 56bc 8fb1 24b1
000002f0: 1b00 7090 7227 3db0 fd12 ba9f 0754 bbbd
00000300: 4c8e ce3c b207 f23a fdad 4b3b 4fd0 a83d
00000310: 51b6 a6bc a81b 47bd bc9a 9bbd 87ab dcbd
00000320: 102f c4bc ef70 c9bb 3c39 76bd 31d8 9cbd
00000330: 3750 68bc 5cf9 a8bc bd23 00ba f15b b33c
00000340: 5095 993d 9131 8f3d a8af ff3c 8a07 e0bd
00000350: 891a bdb7 f415 16b2 5e10 1c97 8678 953c
00000360: 3fa7 a5bb 4881 1abc c102 4f3d 958e c2bd
00000370: 5eee 313d 8400 4fb8 7d6a 62b0 b569 213b
00000380: 6c3b 84bb 343a 353e 2989 eebd 91c1 8cb2
00000390: df39 88a5 2029 60b2 0bd3 deb9 6373 92bd
000003a0: 7f9c 8e3d 8628 b13d 5202 a3bc 365a 1c39
000003b0: d52f a43c 44fc 8299 bb20 0d3e 326c 50bb
000003c0: 7d74 b6bd 17cc 29bc 86dd b7bb 175d 9dbe
000003d0: 3a2b 1f3d 8272 813c a714 503d 1b33 50bd
000003e0: 1df5 f2bd 2b58 49bc 39f6 d6b2 da05 d9bb
000003f0: 9f18 77bd d246 1a9b 66e1 67ba 6475 b4bd

fc2.weight f4 [128, 256]
0.00013252116 -0.027105018 3.194303e-22 2.951349e-17 -0.035304803 -4.67609e-40 0.05689556 -0.009886892
0.00015927826 -0.0002965733 0.0013150256 -0.031336226 -0.013855368 -0.041395288 -0.028777136 -0.00024521133
-1.9993041e-17 0.022660736 0.054873075 0.19223908 6.687596e-26 0.016134398 -0.07021431 1.1286332e-24
0.011685254 0.0128908595 -0.013681823 0.06419179 -4.5558695e-09 -0.012072535 0.018389232 -0.23180364
-0.043926783 2.041301e-07 -7.555624e-11 -0.0018588685 4.9235e-41 0.010838013 2.3609022e-05 0.015369279
-0.0074421717 0.011123615 0.0093886675 -0.08472142 -0.005330598 -0.00039222915 7.7746906e-11 0.06612291
0.015218351 0.06031239 -0.03227572 -0.03576528 -2.7951206e-05 0.032364137 -0.0041336864 0.038262665
4.9184e-41 0.017079227 0.0008709329 -4.9298e-41 -0.0698078 1.695532e-07 0.041051608 0.10085233
0.08159483 -4.9188e-41 -0.04162264 0.0008210169 0.0675241 -4.0004347e-25 -0.0026169885 -0.11539516
0.047743328 0.040897135 0.037791528 0.01224784 0.016256714 -3.8448983e-05 0.056188133 0.0037166765
0.1407334 0.10862854 0.014091344 -5.6647236e-19 -0.087273814 -0.023669474 -0.17964652 0.018686201
0.093396164 0.09120653 0.006257132 0.03490812 3.98328e-05 0.0006248748 0.008500959 0.002201675
0.009034931 2.1538987e-07 0.067264155 0.07052516 0.008419885 -0.06252389 0.03566353 0.04723906
0.018878719 0.010615311 0.13972677 6.368134e-07 0.106443256 -0.07786081 -8.775175e-09 0.077152066
-0.0051558483 0.0040320074 0.0267116 0.1129723 0.00608416 -0.004680241 -0.05881084 0.036116973
-0.073527046 9.681493e-12 3.177e-42 0.099300705 -0.16957127 -0.12159923 -1.9217255e-19 -0.024351293
0.027181037 -0.18236966 1.1854838e-17 -1.0101729e-19 -0.045385137 0.07726779 -0.04558153 0.016666971
-0.17210646 -0.01701248 3.9827464e-12 0.05081233 3.1669786e-26 -0.11742044 1.6726886e-05 0.023550084
0.0683109 -0.17113158 -0.021425812 3.2887453e-09 0.10826808 0.056580488 -0.13904788 0.095765874
0.0061629005 -0.003456083 5.0075e-41 -0.030884707 0.009979273 0.030295247 -0.014934531 0.0024317123
-0.012185142 0.019096872 -0.055295095 -1.2780822e-10 -0.033977877 0.017175771 -0.0018799856 0.026400467
0.056895446 -0.015783694 0.052744746 0.12280514 -0.021003183 0.07447081 1.9535437e-23 0.02372377
0.07498827 0.02335549 1.3631456e-05 0.07342294 -0.021970496 -0.03254345 -0.035937816 0.0665606
-0.05075829 -0.07179982 0.016565079 5.7307815e-11 4.9506e-41 1.7595247e-17 4.9254e-41 0.049997687
-0.028559325 -0.18171994 0.004587989 0.13405357 0.06597468 0.018507162 -0.08034243 -0.025675543
0.03465754 -0.0005044439 0.048818164 0.017596971 -0.008533484 -0.011932429 7.34933e-08 -0.025011849
0.01577569 0.061815906 0.081321 0.0018584516 8.0917005e-08 -6.218719e-24 4.9235e-41 0.0053449776
0.0014471617 0.0003456591 0.0012921984 -0.008359211 -0.055706363 -5.376056e-09 1.1992564e-13 -0.039220028
-0.004298326 0.09165775 -0.041813657 1.8274631e-09 9.967179e-08 2.0023934e-05 -1.0894297e-05 -0.026526924
-0.011078227 0.051481552 0.05941815 -0.00201382 -0.19552246 4.9073e-41 -0.049708065 -7.467661e-05
-0.053895976 -0.008424206 0.0025037685 -0.13340573 0.079481356 0.019741774 -0.061077148 0.06004409
-0.0723519 0.045073953 9.060175e-19 -2.5046533e-05 0.10474487 -1.1560493e-14 0.007029188 -0.10374152
00000000: 61f5 0a39 580b debc 7215 c11b 611b 0824
00000010: c59b 10bd 8117 0580 520b 693d a1fc 21bc
00000020: ef03 2739 657d 9bb9 f05c ac3a 6a5a 00bd
00000030: a001 63bc 1b8e 29bd 07be ebbc b58f 80b9
00000040: 3c67 b8a3 02a3 b93c 97c2 603d 52da 443e
00000050: ad93 a515 492c 843c 85cc 8fbd c4a5 ae17
00000060: 8273 3f3c 2f34 533c ba29 60bc fc76 833d
00000070: da89 9cb1 e2cb 45bc 04a5 963c ef5d 6dbe
00000080: 92ec 33bd db2e 5b34 6226 a6ae 47a5 f3ba
00000090: 3f89 0000 ec91 313c fd0b c637 6ecf 7b3c
000000a0: 76dd f3bb d33f 363c edd2 193c 6d82 adbd
000000b0: 4cac aebb 1ba4 cdb9 9ef7 aa2e 736b 873d
000000c0: 6456 793c 200a 773d 8c33 04bd 9d7e 12bd
000000d0: c278 eab7 4290 043d e073 87bb 50b9 1c3d
000000e0: 1b89 0000 bce9 8b3c 514f 643a 6c89 0080
000000f0: 64f7 8ebd 6e0e 3634 bb25 283d ab8b ce3d
00000100: 311b a73d 1e89 0080 807c 2abd 8339 573a
00000110: 134a 8a3d 6b9d f796 c881 2bbb 4c54 ecbd
00000120: 828e 433d c183 273d 4acb 1a3d 2aab 483c
00000130: cd2c 853c 4844 21b8 8725 663d 7c93 733b
00000140: 6b1c 103e a478 de3d 61df 663c 7131 27a1
00000150: 9dbc b2bd 7ce6 c1bc 42f5 37be ce13 993c
00000160: 7d46 bf3d 7dca ba3d a108 cd3b d1fb 0e3d
00000170: 2512 2738 a3ce 233a 9b47 0b3c fa49 103b
00000180: 3f07 143c eb45 6734 cac1 893d 7f6f 903d
00000190: 8ff3 093c 860c 80bd ec13 123d bf7d 413d
000001a0: 8ba7 9a3c d7eb 2d3c 8914 0f3e 7cf1 2a35
000001b0: ecfe d93d 7d75 9fbd a1c1 16b2 e701 9e3d
000001c0: 64f2 a8bb ee1e 843b 49d2 da3c 055e e73d
000001d0: a25d c73b b55c 99bb a3e3 70bd 64ef 133d
000001e0: 5995 96bd 9151 2a2d db08 0000 2b5e cb3d
000001f0: 17a4 2dbe 0409 f9bd 97e0 62a0 5d7c c7bc
00000200: c4aa de3c 1dbf 3abe e4ae 5a23 3485 ee9f
00000210: c4e5 39bd 933e 9e3d b3b3 3abd 2c89 883c
00000220: ad3c 30be c25d 8bbc 6421 8c2c 9720 503d
00000230: 39d2 1c15 217a f0bd b750 8c37 1bec c03c
00000240: 96e6 8b3d 1e3d 2fbe 2f85 afbc 3800 6231
00000250: a8bb dd3d f1c0 673d 9162 0ebe e620 c43d
00000260: 28f2 c93b 737f 62bb 978b 0000 ed01 fdbc
00000270: 1b80 233c bd2d f83c f7af 74bc 5d5d 1f3b
00000280: 31a4 47bc 0b71 9c3c 1c7d 62bd d186 0caf
00000290: 632c 0bbd 34b4 8c3c d969 f6ba cb45 d83c
000002a0: 330b 693d ce4c 81bc e00a 583d 4381 fb3d
000002b0: de0e acbc 2784 983d 66ef bc19 5a58 c23c
000002c0: 7393 993d 0354 bf3c a8b2 6437 c45e 963d
000002d0: 78fb b3bc 484c 05bd 8833 13bd ed50 883d
000002e0: ede7 4fbd c90b 93bd 7db3 873c dd0a 7c2e
000002f0: 018a 0000 9a49 a223 4d89 0000 60ca 4c3d
00000300: 3ff5 e9bc cb14 3abe d756 963b 5745 093e
00000310: bc1d 873d 559c 973c 928a a4bd 8455 d2bc
00000320: 11f5 0d3d a83c 04ba 8ef5 473d 8627 903c
00000330: 07d0 0bbc 3c80 43bc 5ed3 9d33 a6e5 ccbc
00000340: 053c 813c ad32 7d3d a08b a63d 4a97 f33a
00000350: 98c4 ad33 3693 f098 3f89 0000 ec24 af3b
00000360: b0ae bd3a 9439 b539 fc5e a93a 12f5 08bc
00000370: 5b2c 64bd 4ab8 b8b1 3606 072a 2ea5 20bd
00000380: f9d8 8cbb 0fb7 bb3d cc44 2bbd 242a fb30
00000390: 250b d633 12f9 a737 a6c6 36b7 fe4e d9bc
000003a0: 7481 35bc 52de 523d 7260 733d 4bfa 03bb
000003b0: 0a37 48be cc88 0000 af9a 4bbd b39b 9cb8
000003c0: 07c2 5cbd ae05 0abc 4416 243b 839b 08be
000003d0: 1fc7 a23d 80b9 a13c 082c 7abd cbf0 753d
000003e0: 3c2d 94bd 779f 383d 60b4 8521 051b d2b7
000003f0: 7a84 d63d 5d41 50a8 1a55 e63b 6f76 d4bd

fc2.bias f4 [128]
0.17344977 0.044162676 -0.1285078 -0.0008596887 0.036469355 -0.028743958 0.01387529 -0.16736668
-0.00048367414 0.021004496 0.113622956 0.012107375 -1.0011946e-13 -0.028245494 -2.1962622e-05 -0.0099513
-0.05684574 -1.8586712e-11 -0.0352741 0.029731877 0.0709226 -0.0032722584 0.2573219 -0.062112246
0.10233597 0.107647136 -0.0032717655 -0.060762506 -0.034750212 0.0577718 -0.025190888 0.037244983
-0.050066095 -0.049716573 -7.199883e-06 0.06357289 0.057483632 0.2221148 -0.24983366 0.21044475
0.0092435945 -0.060763568 0.08131697 0.107837684 0.15063986 0.041690618 0.2648499 -0.10402195
-0.0069307485 -0.001329241 0.020013196 0.12009997 0.032354373 0.17664999 -0.14687248 -0.0018629265
-6.349565e-14 0.23212402 0.047884844 0.23385856 0.09757111 0.13237056 0.05029 0.058916807
0.118880555 -0.0019211329 -0.066118054 0.07719763 -0.19577275 0.11564833 0.23846018 0.030771166
0.07051977 0.12205468 0.02869167 0.19617273 0.048071623 -0.0701956 0.07096145 0.02448371
0.0069689904 0.06623811 -0.005547277 -0.055027444 -0.0052193264 -0.03648992 -0.012382055 -0.027688976
0.12761392 0.19309981 0.2627739 -0.0008677742 0.05275579 -0.00111597 -0.040211916 -0.018115819
0.019814234 -0.030008622 -0.013129674 0.10244076 -0.036182407 0.026554596 0.086570755 0.25453025
0.16446699 -0.065129384 0.17280848 -0.00038935005 -0.050559595 -0.053722315 0.21928422 0.024186749
-0.0010242403 0.0040182313 -0.035841238 -0.049264878 -0.19659345 0.051830895 0.06643264 -0.055343438
-0.013725039 -0.0030744274 -0.022375 0.06532927 -0.064233676 0.14505108 0.092355214 0.02782263
00000000: d19c 313e ece3 343d 8c97 03be bb5c 61ba
00000010: e460 153d 7378 ebbc 2f55 633c 2c62 2bbe
00000020: a595 fdb9 9f11 ac3c 27b3 e83d 035e 463c
00000030: f072 e1a9 1863 e7bc 5f3c b8b7 c70a 23bc
00000040: 14d7 68bd 8e7d a3ad 937b 10bd 4490 f33c
00000050: de3f 913d 6373 56bb b2bf 833e 6969 7ebd
00000060: 8595 d13d 1a76 dc3d 1e6b 56bb 1be2 78bd
00000070: 3d56 0ebd 1fa2 6c3d 1f5d cebc 328e 183d
00000080: 1b12 4dbd 9ba3 4bbd 8696 f1b6 8132 823d
00000090: f573 6b3d 1072 633e 65d4 7fbe d47e 573e
000000a0: 7272 173c 38e3 78bd 8389 a63d 01da dc3d
000000b0: 5641 1a3e c8c3 2a3d 689a 873e 7609 d5bd
000000c0: 551b e3bb ed39 aeba b7f2 a33c f9f6 f53d
000000d0: 0586 043d bce3 343e bd65 16be 712d f4ba
000000e0: c0fa 8ea9 ebb1 6d3e e622 443d 9e78 6f3e
000000f0: 5dd3 c73d 268c 073e e3fc 4d3d c052 713d
00000100: a677 f33d 86ce fbba e768 87bd cb19 9e3d
00000110: a778 48be 08d9 ec3d e82e 743e d013 fc3c
00000120: ab6c 903d cef7 f93d cb0a eb3c 81e1 483e
00000130: c0e6 443d b6c2 8fbd 3d54 913d 1092 c83c
00000140: 215c e43b d9a7 873d efc5 b5bb 7564 61bd
00000150: e206 abbb 7476 15bd 1ade 4abc fed3 e2bc
00000160: 39ad 023e f5bb 453e 4d8a 863e 577b 63ba
00000170: 7516 583d bd45 92ba 40b5 24bd a067 94bc
00000180: 7651 a23c a4d4 f5bc d81d 57bc 76cc d13d
00000190: 0134 14bd 0689 d93c 024c b13d ca51 823e
000001a0: 096a 283e 8e62 85bd b5f4 303e ae21 ccb9
000001b0: 9417 4fbd ee0b 5cbd 0b8c 603e 4a23 c63c
000001c0: cd3f 86ba 5eab 833b 43ce 12bd f8c9 49bd
000001d0: cb4f 49be a24c 543d d60d 883d cdaf 62bd
000001e0: fcde 60bc 557c 49bb c74b b7bc 5acb 853d
000001f0: f28c 83bd 4588 143e bb24 bd3d 49ec e33c

fc3.weight f4 [64, 128]
0.022163162 0.0833322 -0.17220116 2.9507763e-05 0.17045398 -0.1676596 0.049873885 -0.10957436
0.00029360215 0.15703471 0.06844428 0.08437769 2.6840923e-23 -0.019203367 2.7419874e-05 0.11215718
-0.038181357 -1.556592e-07 -0.0010577012 -0.013142725 0.10799053 0.066503346 0.05104395 0.05177489
-0.058982223 -0.026941827 -0.09095419 0.07345229 0.0043434775 0.2541857 0.03758576 0.13231319
-0.110369965 0.016034823 -9.794035e-08 0.08231959 0.09500751 0.13325481 -0.2126586 -0.07295034
-0.09936953 0.07030499 -0.022891605 0.035969056 -0.14392616 -0.027273323 -0.013365496 0.16317236
0.14301707 -5.085839e-07 0.011750055 -0.0076232404 0.024489496 -0.02836636 0.15725099 -0.0010372825
-4.6845968e-18 0.027538775 0.07081693 -0.029605241 0.093605354 0.065816775 0.051936787 0.0989732
-0.03558837 1.4015814e-06 -0.013910312 0.13700849 -0.11259565 0.008334038 0.1676497 -0.06779878
0.082850724 -0.075035244 -0.14962977 0.027698552 0.0029270002 0.0017821133 0.053688996 -0.0026675577
0.12837668 -0.10391458 -0.15852015 0.11551582 0.03124918 -0.08808738 0.0005278592 0.007171883
-0.0048481305 0.108378634 -0.1469917 -4.427174e-05 0.18816967 -0.00032008314 0.19407819 0.008319776
-0.07500755 0.013612493 -0.115246184 -0.06844232 -0.03945417 0.014720019 0.074618235 0.08035865
0.008854764 0.0036019688 0.020700116 -0.058114108 0.17725554 -0.043062285 0.028218277 -0.0010693071
-2.9984301e-05 0.11878246 -0.019328937 0.010844488 -0.15139757 0.13969001 -0.007243257 -0.093040675
-0.20090774 0.06341784 0.024147337 0.051349696 -0.0019213384 0.0026488623 -0.05073154 -0.097443834
0.06709336 -0.05591425 -0.29048577 -0.0031547223 0.29244587 0.029742707 -0.0295817 -0.086479425
0.00017935461 -0.0097672455 0.14336167 0.044382375 2.6969732e-10 0.005466879 6.639939e-07 -0.13580997
-0.12972994 3.2021366e-17 0.05805656 0.004340693 0.11138192 0.12614052 0.032846767 -0.1454875
0.15249462 0.058854256 -0.084521264 0.06777663 0.0011854279 0.06540817 -0.010732569 0.29616734
0.06444791 -0.032920647 1.1169867e-05 0.14106584 -0.1615017 0.17424864 -0.14356984 0.07680739
0.063787386 0.034948666 -0.08392332 0.1679034 0.10148245 0.015800182 0.21140751 0.16607621
-0.010103291 2.0255047e-07 -0.0008741133 -0.00943001 0.036508728 0.06635917 0.022793839 -0.0005965386
-4.1612786e-19 -0.07614476 0.1847541 0.0061507192 0.019074842 0.08913515 0.07233113 0.107558094
0.011439923 -7.357715e-05 -0.101471156 0.075142235 -0.07476376 0.021169486 0.29019403 0.017215325
0.0756059 -0.007893434 -0.004174034 -0.02177015 0.06124826 0.09559864 0.06468143 0.09658119
0.039557684 -0.0062503074 0.0446918 0.07641652 0.055235792 0.054209147 0.04210014 -0.038095288
-0.010166802 0.071962595 0.04669478 -0.0037296058 -0.013033383 -4.8722755e-05 -0.23167221 0.007563469
-0.02347996 0.008342223 0.019382648 -0.032105964 -0.041861292 -0.078286424 0.068302415 0.092539154
0.05771258 -0.00058515486 0.18770736 -0.08062366 -0.16317089 -0.07366557 -0.045619186 0.04140795
-0.0001693957 0.07958626 0.027947385 -0.005904495 -0.27566957 0.07384111 -0.008548834 0.046973865
-0.022371814 0.12404243 0.10292925 0.12809342 0.06032609 0.04175477 0.17203344 0.01982036
00000000: 858f b53c 13aa aa3d 8055 30be 7087 f737
00000010: 7d8b 2e3e f5ae 2bbe 8f48 4c3d 8668 e0bd
00000020: 9dee 9939 b5cd 203e 842c 8c3d 36ce ac3d
00000030: 74cb 011a 6150 9dbc bb03 e637 aab2 e53d
00000040: 0e64 1cbd 4623 27b4 90a2 8aba 9654 57bc
00000050: 242a dd3d e832 883d 7613 513d e811 543d
00000060: 5897 71bd 1bb5 dcbc 3146 babd 276e 963d
00000070: bb53 8e3b a124 823e 87f3 193d 1c7d 073e
00000080: a609 e2bd 765b 833c 4753 d2b3 2c97 a83d
00000090: 4c93 c23d f373 083e 2dc3 59be fd66 95bd
000000a0: 4182 cbbd 10fc 8f3d 2d87 bbbc 4a54 133d
000000b0: 6161 13be 4e6c dfbc f4fa 5abc a816 273e
000000c0: 1173 123e 9f85 08b5 4d83 403c 60cc f9bb
000000d0: 329e c83c 9260 e8bc 6706 213e 6df5 87ba
000000e0: c4d4 aca2 ff98 e13c 7708 913d b186 f2bc
000000f0: 2ab4 bf3d f2ca 863d abbb 543d 76b2 ca3d
00000100: 1cc5 11bd f81d bc35 14e8 63bc f44b 0c3e
00000110: 8c98 e6bd 7d8b 083c 5dac 2b3e 16da 8abd
00000120: a4ad a93d 14ac 99bd 8c38 19be 13e8 e23c
00000130: ead2 3f3b cd95 e93a fee8 5b3d 31d2 2ebb
00000140: 2d75 033e 2bd1 d4bd 1b53 22be 8f93 ec3d
00000150: 48fe ff3c 2867 b4bd 0860 0a3a 1d02 eb3b
00000160: 11dd 9ebb 9ef5 dd3d fe84 16be 6bb0 39b8
00000170: 8daf 403e d5d0 a7b9 6fbc 463e ab4f 083c
00000180: 8f9d 99bd ef06 5f3c 3106 ecbd 7d2b 8cbd
00000190: b29a 21bd 3c2c 713c 72d1 983d 1393 a43d
000001a0: 9213 113c 020f 6c3b 4a93 a93c 0f09 6ebd
000001b0: 7a82 353e 1462 30bd 042a e73c fe27 8cba
000001c0: cc86 fbb7 3844 f33d b857 9ebc 14ad 313c
000001d0: f707 1bbe e60a 0f3e d858 edbb 1c8c bebd
000001e0: c2ba 4dbe 36e1 813d a3d0 c53c 0f54 523d
000001f0: 6bd5 fbba 8998 2d3b e0cb 4fbd a290 c7bd
00000200: 3e68 893d 5706 65bd 8dba 94be 75bf 4ebb
00000210: 77bb 953e faa6 f33c 5255 f2bc 201c b1bd
00000220: 2311 3c39 cc06 20bc 67cd 123e 4bca 353d
00000230: 8644 942f 8123 b33b 503d 3235 c511 0bbe
00000240: edd7 04be 28ac 1324 b7cc 6d3d 5f3c 8e3b
00000250: 341c e43d fb2a 013e 558a 063d adfa 14be
00000260: 8d27 1c3e 2911 713d 7c19 adbd 79ce 8a3d
00000270: 5c60 9b3a b8f4 853d a8d7 2fbc 3fa3 973e
00000280: 44fd 833d cdd7 06bd 3766 3b37 9073 103e
00000290: b460 25be 3c6e 323e f903 13be 314d 9d3d
000002a0: f6a2 823d 5526 0f3d fddf abbd deee 2b3e
000002b0: 08d6 cf3d 626f 813c 367b 583e e20f 2a3e
000002c0: 4688 25bc a67c 5934 c024 65ba 5480 1abc
000002d0: 2d8a 153d 51e7 873d 25ba ba3c 0761 1cba
000002e0: 77a3 f5a0 c9f1 9bbd 2e30 3d3e f98b c93b
000002f0: d842 9c3c 7d8c b63d 5822 943d 6b47 dc3d
00000300: 846e 3b3c 6e4d 9ab8 1cd0 cfbd 2ce4 993d
00000310: be1d 99bd a16b ad3c 5094 943e 2707 8d3c
00000320: 44d7 9a3d 7653 01bc 56c6 88bb 5057 b2bc
00000330: 75df 7a3d 38c9 c33d b377 843d 5ccc c53d
00000340: 3d07 223d 61cf ccbb c00e 373d 4480 9c3d
00000350: ed3e 623d 690a 5e3d 3271 2c3d ce09 1cbd
00000360: a992 26bc 2061 933d 0743 3f3d 676c 74bb
00000370: f889 55bc a95b 4cb8 7b3b 6dbe fad6 f73b
00000380: 0c59 c0bc d2ad 083c 5cc8 9e3c 8b81 03bd
00000390: bf76 2bbd a254 a0bd 23e2 8b3d 2b85 bd3d
000003a0: 0764 6c3d 1465 19ba 5c36 403e 041e a5bd
000003b0: 4516 27be f9dd 96bd 2fdb 3abd 629b 293d
000003c0: d09f 31b9 1ffe a23d eaf1 e43c 7e7a c1bb
000003d0: 9024 8dbe 023a 973d 6910 0cbc ab67 403d
000003e0: 1845 b7bc f509 fe3d 92cc d23d ec2a 033e
000003f0: 7d18 773d 0d07 2b3d 8929 303e 4f5e a23c

fc3.bias f4 [64]
0.010683981 0.29464 -5.987326e-07 0.20689134 0.22285596 0.18862902 -0.001814471 0.0023949312
0.011307315 -0.101121396 0.19098137 0.26809645 0.16315296 -0.08759914 -4.3869015e-13 0.15922122
-0.046331327 0.003285179 -0.0014707956 0.061062247 0.11923452 0.09840223 -8.5591134e-10 0.027042374
-0.002037419 0.09794896 0.19130278 -0.014274291 0.072023556 -0.0026042133 -0.06015531 -2.8611433e-10
0.101754405 0.037418466 0.19294176 -0.0026380487 -0.039245885 0.17022863 -0.026345208 0.25821057
-0.09891073 -0.010573281 0.09936949 0.053383414 -5.801691e-05 -0.08578109 -0.03461028 0.09292573
0.015921628 -0.020327162 0.17896152 0.06430016 0.02427207 -0.0031789953 0.15872684 0.12737666
-8.159735e-05 0.26450607 -0.002300012 -9.1322376e-14 0.09366366 0.08043486 -0.046272628 -6.472115e-07
00000000: dd0b 2f3c 0edb 963e 97b8 20b5 53db 533e
00000010: 5a34 643e f727 413e 8bd3 edba 47f4 1c3b
00000020: 5142 393c bc18 cfbd 9f90 433e f043 893e
00000030: 9211 273e 2e67 b3bd eaf5 f6aa e30a 233e
00000040: ebc5 3dbd 284c 573b b6c7 c0ba 681c 7a3d
00000050: 3a31 f43d 1c87 c93d 6845 6bb0 f887 dd3c
00000060: 3886 05bb 7799 c83d e0e4 433e b7de 69bc
00000070: 1681 933d 73ab 2abb 6a65 76bd 034b 9daf
00000080: 9d64 d03d 1b44 193d 8692 453e 1de3 2cbb
00000090: 4bc0 20bd 6a50 2e3e e8d1 d7bc 2d34 843e
000000a0: b591 cabd 8e3b 2dbc 3b82 cb3d 91a8 5a3d
000000b0: 2f57 73b8 ffad afbd 82c3 0dbd d84f be3d
000000c0: 136e 823c 2685 a6bc b041 373e cdaf 833d
000000d0: 38d6 c63c b156 50bb 4a89 223e 076f 023e
000000e0: 3e1f abb8 576d 873e ccbb 16bb c4a3 cda9
000000f0: bcd2 bf3d 08bb a43d 5e88 3dbd 09bc 2db5

fc4.weight f4 [10, 64]
-0.21374045 0.029729724 0.0007084379 -0.12079687 -0.01836805 -0.034498513 -6.8322195e-05 -0.1448144
-0.077792466 0.078304015 -0.1599693 -0.1290195 0.16123004 0.14286242 -2.6462496e-06 -0.25750583
-0.24524243 0.09330815 0.010057236 0.15527293 -0.26546705 0.20832716 0.0025536357 -0.16209748
-0.17165835 -0.21185777 -0.22844455 0.007205508 -0.29160902 -0.014507787 -0.38333786 -1.3217416e-07
0.18456076 -0.31404012 0.19189681 -0.00013158572 0.15452261 -0.2907659 0.0047093234 -0.26728705
-0.03129115 -0.1068765 0.16487205 -0.24391764 -8.20773e-06 -0.11493384 -0.11438622 0.29119697
-0.481223 0.23807679 -0.12728757 -0.14347535 0.29684347 0.079272926 0.19090578 0.24444199
0.008627147 -0.2679101 -0.1640311 -1.916924e-06 -0.26562682 -0.31206074 0.2133465 -0.00062003953
-0.37505943 -0.36527637 0.00022359559 -0.38556433 -0.0664559 0.19464752 0.0010392179 0.10373155
-0.31263548 0.26404855 -0.2845322 -0.20880617 -0.3712261 0.20630375 -6.329154e-11 -0.21213745
-0.00032038018 -0.20789139 -0.018842217 -0.4008492 -0.25881246 -0.30978698 6.1396474e-07 0.044280656
0.27199587 0.15086553 0.074544944 -0.0072889253 0.07458421 0.009736271 0.11305802 3.5184325e-06
0.13524646 0.107006 -0.22409564 -0.003400633 -0.31785843 0.112653114 0.1806039 -0.15287113
0.4558038 -0.005456854 -0.053087674 0.10425849 -0.0014970679 0.24284382 0.27446365 -0.37948105
0.17072242 0.10154485 -0.24349895 -0.43093336 -0.1025695 -0.4909557 0.2404743 0.0813904
-7.800788e-05 0.03358951 -0.09874024 0.0014659391 0.16783722 -0.13612394 0.30261996 -0.00045238444
0.020678218 -0.038803697 0.002206155 0.097433165 0.11809162 -0.1876109 -0.008401654 -0.50064635
-0.1190063 -0.34687248 -0.1294478 0.100077406 0.24559209 0.024834778 1.1495108e-05 -0.051992394
-0.055979706 0.32705557 -0.0073473295 -0.22642675 0.19421239 -0.15161373 -0.00026610488 0.14775136
-0.28597057 -0.16560869 -0.33567846 -0.0152275115 -0.08240961 -0.010903151 0.046490762 -2.6924663e-05
0.24943835 0.10122175 -0.35145113 0.0018037541 -0.10721826 0.11263308 0.19462389 -0.03864732
-0.06465129 -0.076707706 0.15175034 0.13844351 0.00013400533 0.13796106 -0.37629932 0.18432577
0.26186708 -0.43832433 0.07501425 0.09898222 0.05886393 -0.026323987 -0.40949428 -0.29989216
0.0012904961 -0.1787501 0.25266293 0.0018793772 -0.058383532 -0.0037600056 0.11217685 0.004688886
0.030151865 0.20346025 -0.006973044 0.14182983 -0.04761253 0.05394153 -0.0038601854 0.07314717
0.25624588 0.090988286 0.16407488 -0.27836466 0.12683153 0.007083551 3.77454e-05 0.17883123
-0.30810392 -0.2376272 0.00016843375 -0.364021 0.2157495 0.10707122 3.249272e-09 0.1961809
-0.2717735 0.11431244 -0.28060898 -0.0036130769 0.12411468 -0.0041516325 0.27937883 -4.3408727e-06
-0.3244747 -0.26387894 -0.3065144 0.00013188999 -0.30104676 -0.2661961 -0.10720867 -0.020577328
-0.2932114 0.14926991 -0.2093954 -0.02462208 0.006848036 0.11876536 -0.0767534 0.12691717
-0.2691328 -0.27602434 -0.18459794 -0.08681695 -0.3386902 0.051637433 -0.28731224 -0.41454768
0.00061486434 0.1767625 0.009442069 0.0012433005 0.20293592 0.110286675 0.183932 -0.00041607223
00000000: c7de 5abe c08b f33c 76b6 393a 5964 f7bd
00000010: 9878 96bc 504e 0dbd 3348 8fb8 3a4a 14be
00000020: a851 9fbd db5d a03d fece 23be b01d 04be
00000030: 7d19 253e 874a 123e 3996 31b6 ced7 83be
00000040: d520 7bbe 5818 bf3d 1bc7 243c deff 1e3e
00000050: 4ceb 87be b753 553e e65a 273b e2fc 25be
00000060: 35c7 2fbe 3ef1 58be 5eed 69be 2f1c ec3b
00000070: c74d 95be 12b2 6dbc dc44 c4be c2eb 0db4
00000080: 7ffd 3c3e dec9 a0be 9980 443e 46fa 09b9
00000090: 2d3b 1e3e 45df 94be ab50 9a3b d9d9 88be
000000a0: 262b 00bd 11e2 dabd 38d4 283e 8cc5 79be
000000b0: efb3 09b7 6f62 ebbd 5343 eabd c517 953e
000000c0: dc62 f6be 67ca 733e ac57 02be 34eb 12be
000000d0: defb 973e d859 a23d ce7c 433e 004f 7a3e
000000e0: e158 0d3c 832b 89be c5f7 27be 81a4 00b6
000000f0: 3d00 88be 6dc6 9fbe 8177 5a3e 268a 22ba
00000100: ca07 c0be 8105 bbbe fc74 6a39 b068 c5be
00000110: 081a 88bd ae51 473e 5e36 883a 3571 d43d
00000120: c211 a0be 5f31 873e 34ae 91be 49d1 55be
00000130: 5911 bebe 4a41 533e f82d 8bae 8f3a 59be
00000140: b3f8 a7b9 7be1 54be fe5a 9abc 1b3c cdbe
00000150: 1183 84be 669c 9ebe 56cf 2435 a25f 353d
00000160: 0b43 8b3e 7e7c 1a3e 05ab 983d f0d7 eebb
00000170: 9bbf 983d e184 1f3c f78a e73d 361e 6c36
00000180: 0c7e 0a3e f625 db3d 5479 65be 28dd 5ebb
00000190: 57be a2be adb6 e63d 3bf0 383e 408a 1cbe
000001a0: 1e5f e93e 69cf b2bb 7672 59bd 7a85 d53d
000001b0: 4339 c4ba 0dac 783e 8086 8c3e 574b c2be
000001c0: dcd1 2e3e bff6 cf3d ca57 79be 4ca3 dcbe
000001d0: f50f d2bd 8c5e fbbe e53e 763e 03b0 a63d
000001e0: 2998 a3b8 2795 093d 5338 cabd c124 c03a
000001f0: 85dd 2b3e 1364 0bbe 01f1 9a3e 032e edb9
00000200: 5e65 a93c a0f0 1ebd 2495 103b 0a8b c73d
00000210: 05da f13d 121d 40be 17a7 09bc 5c2a 00bf
00000220: 93b9 f3bd 4599 b1be f78d 04be 62f5 cc3d
00000230: 7e7c 7b3e 4e72 cb3c 1ddb 4037 faf5 54bd
00000240: fa4a 65bd d473 a73e dec1 f0bb 6adc 67be
00000250: 9ddf 463e a140 1bbe fe83 8bb9 224c 173e
00000260: bc6a 92be 5395 29be 0cde abbe d07c 79bc
00000270: 5fc6 a8bd 21a3 32bc 196d 3e3d 46dc e1b7
00000280: c46c 7f3e 594d cf3d 67f1 b3be f26b ec3a
00000290: 3f95 dbbd 2cac e63d 7c4b 473e a74c 1ebd
000002a0: e567 84bd ee18 9dbd 7164 1b3e 23c4 0d3e
000002b0: c883 0c39 aa45 0d3e 4eaa c0be e5bf 3c3e
000002c0: 7113 863e 0c6c e0be 12a1 993d 31b7 ca3d
000002d0: 4e1b 713d 67a5 d7bc 3ca9 d1be 778b 99be
000002e0: dd25 a93a 440a 37be 095d 813e 6f55 f63a
000002f0: 9223 6fbd 6d6a 76bb fabc e53d 3aa5 993b
00000300: 0b01 f73c e257 503e 227e e4bb d73b 113e
00000310: 5b05 43bd cbf1 5c3d 2afb 7cbb 2fce 953d
00000320: a932 833e 1158 ba3d 3f03 283e d085 8ebe
00000330: 20e0 013e 221d e83b d150 1e38 891f 373e
00000340: ccbf 9dbe 8b54 73be 979d 3039 f660 babe
00000350: 70ed 5c3e 2848 db3d cc49 5f31 a5e3 483e
00000360: e525 8bbe a41c ea3d fbab 8fbe 5fc9 6cbb
00000370: d62f fe3d 6b0a 88bb be0a 8f3e d0a7 91b6
00000380: 8c21 a6be 241b 87be 75ef 9cbe f34b 0a39
00000390: cd22 9abe db4a 88be 3890 dbbd c991 a8bc
000003a0: ce1f 96be 36da 183e bf6b 56be 3fb4 c9bc
000003b0: 7d65 e03b 413b f33d e330 9dbd 93f6 013e
000003c0: c6cb 89be 1053 8dbe 3e07 3dbe 16cd b1bd
000003d0: cd68 adbe c681 533d 971a 93be 983f d4be
000003e0: d92e 213a 3b01 353e e8b2 1a3c 3ef6 a23a
000003f0: 6fce 4f3e fbdd e13d ac58 3c3e 4524 dab9

fc4.bias f4 [10]
-0.0033420105 -0.07749382 0.07782854 -0.050173625 0.056799777 -0.047453854 -0.0786508 -0.09754267
0.38742024 0.12742008
00000000: a205 5bbb 14b5 9ebd 9264 9f3d dc82 4dbd
00000010: e2a6 683d f95e 42bd ac13 a1bd 74c4 c7bd
00000020: f25b c63e 697a 023e
